checkpoints/best_model.pth (torch, 837687 bytes, 186 tensors)

conv_block1.0.weight f4 [16, 3, 3, 3]
00000000: dd9e f4bc 68ea 173e d59c 803e 1714 01be
00000010: ff8b 0d3e a96a 4b3e 0b52 3fbe d20f fe3d
00000020: 3f68 8abd 0672 29be a96e e23c 7937 683e
00000030: b5ec db3c 3ad9 c1bd 62da 14be 353c fdbd
00000040: 2bae 1bbe d6ab 0cbe 8bf8 723a a63f fb3b
00000050: eca5 803d 0a5b 49be c94f b73d c832 263d
00000060: 00b5 0fbe 6837 233e 58d0 26bd 9203 833a
00000070: 6889 0dbe 61d8 1f3c d945 82be 151f 6cbd
00000080: b447 19be 0e34 5d3e 79bc 873e 3e13 343e
00000090: 840a 14be 5658 bcbd f4c5 0d3b f3b1 c23d
000000a0: 59ac 30be b208 8b3c 4d03 d23b 19c2 743e
000000b0: ed28 943d 7ff7 22be 120d 4c3d ac16 a73d
000000c0: 56d9 4cbe 324c 453d 85f3 82bc c9a4 c33b
000000d0: 16dd 353e 6924 703c c3f2 913d 7eb8 77bd
000000e0: ace2 8bbd fc3d debd 6670 a43d 9e4c 093d
000000f0: b416 2bbe 56e9 dbbd 9774 c43e 98c6 53bc
00000100: 4d18 143e 8223 8abd bfb3 fb3c d1b9 8abd
00000110: c3bf 81bd 9742 0cbc ef32 41bd 1129 843d
00000120: 65be 10be 4506 92bc 1528 273e 7851 7d3e
00000130: 821c cabc 7467 d2bd 0629 aa3d 5847 9fba
00000140: f074 38be 09a4 ecbc 5dca 9f3d d2eb 3b3d
00000150: 9a36 da3b 748d 97be 133c debb 2474 83ba
00000160: c5eb f43d 5415 023e b4ed 56bd 2302 a93d
00000170: 236c 4c3e 17b8 48bd 12d4 b83c 7833 51be
00000180: 8e2b b03d 1d0b 1e3d cb95 13be 728c c53d
00000190: 85c9 9f3c 0875 283e 2be3 9a3c 7d82 33be
000001a0: 7c84 94bd 829a 013e 6a5a c83b 214e 3ebe
000001b0: 97fe 923d 7733 933d a471 933e 3335 07be
000001c0: 1afe 293e cd8c 1c3d 5dea 3fbe de83 24be
000001d0: cc74 613d 384b aa3d 9d8b 3b3d f7a7 48be
000001e0: 30ee a0bd 4102 eabd 8f5d b13d ad8c b73d
000001f0: 52e0 babd 1f16 c5bd 5e77 e73d 33d3 56be
00000200: d3d8 26bd bf37 0f3e c7c6 b1bc ea00 19be
00000210: dc5a 893e b8bc 293c 446c c1bc 63cc 8bbd
00000220: ae90 443e 1718 0ebe fdce ad3e 4bea c13d
00000230: dcb4 8ebc 707b 093c ba7e adbe 2936 db3d
00000240: bb86 1b3c d6c3 d23d 07a7 893c efa6 8cbd
00000250: f44c fd3d 86eb 2cbe 8f03 47be 47cf 01be
00000260: 0a0d 003d e32c df3d da39 223d cc6f a3bd
00000270: 7815 643e c631 593d 1db0 d03d af95 0dbe
00000280: fb73 c9bd 0b53 fabd 5436 c1bd f938 763d
00000290: f285 98bd 469c 083e a308 05be 19f5 2f3e
000002a0: d0f2 583e 4ca4 54be 12ee 67bd 32fc 8abc
000002b0: c7f7 8d3d f373 8e3a 366d 363e 0f45 78be
000002c0: 9571 a4bc b823 8b3d c04d 21be d822 043e
000002d0: 6a91 24be b3e7 f93d 2af7 8d3b cba1 263e
000002e0: a906 06be 6049 a43d 53e9 ab3d cf37 edbd
000002f0: 7368 a1bc 86a0 0b3e 6b61 f43d 77aa 623d
00000300: 3b96 d43d b784 1d3c d488 14be b5ee 683a
00000310: d8bc 5bbe 311d 25bd 7038 863d 945a 6a3e
00000320: 9792 2dbe 3d0a 203e 65e8 4c3e a449 89bb
00000330: e86a 013b d6a0 cdbd c6a0 54bd 8dae 1dbe
00000340: bcdf d5bd 8bd1 1cbe 411f 85bd 52f8 c03d
00000350: f967 79be d846 9d3d 8512 b93d 7f85 323e
00000360: a97c 9abc d855 d63d 5687 01be 0f0b 5abe
00000370: 51ef c0bc d183 68be 576b d23c 65fd 5dbe
00000380: 8f64 743d 1665 a43d c21d 353d cceb 1fbd
00000390: b28e 1abd ca59 8f3c b1ec 6b3e 6db9 e2bc
000003a0: bba1 133e 91ec 22bb a1d8 623e 513f 5d3e
000003b0: 3a95 ed3c 9480 79bd 21f2 1fbe 4cbe 7e3b
000003c0: 8d42 073e 53ce cdbd 0379 af3d f152 f5bd
000003d0: 33a2 833e ee37 aabd 1c8e 08be 3151 05be
000003e0: 0116 bd3d a5ca e9bd 354e 79bd 8f1a 053d
000003f0: 6824 7cbd 136a c3bc cc23 29bd e074 87be
-0.029860908 0.14835513 0.25119653 -0.1260532 0.13822936 0.19864906 -0.1868364 0.12405361
-0.067581646 -0.16547403 0.027640657 0.22677411 0.02684627 -0.09465261 -0.14536431 -0.12364999
-0.15203159 -0.13737425 0.0009268603 0.0076674996 0.06281647 -0.19663635 0.08950765 0.040575773
-0.1403389 0.15939105 -0.040726036 0.0009995571 -0.13821948 0.009756179 -0.25443915 -0.05764683
-0.14968759 0.21601889 0.2651098 0.17585465 -0.14457136 -0.09196536 0.0021632882 0.09506597
-0.17253245 0.01697192 0.006409085 0.23902167 0.072343685 -0.15914725 0.049817152 0.08158621
-0.20004782 0.04816837 -0.01598526 0.0059705717 0.17760119 0.014657118 0.07126381 -0.06047868
-0.068303436 -0.10851666 0.08029251 0.033520333 -0.1670788 -0.10737865 0.383702 -0.012925766
0.14462395 -0.06745054 0.030725358 -0.06773723 -0.06335404 -0.008560798 -0.047167715 0.06453145
-0.1413513 -0.017825255 0.16323884 0.24738109 -0.024671797 -0.10273638 0.08308606 -0.0012151999
-0.18013358 -0.028886812 0.078022696 0.045879193 0.006659341 -0.29600108 -0.0067820637 -0.001002912
0.11959032 0.12703449 -0.052472785 0.08252361 0.19963126 -0.049003687 0.02256206 -0.2042979
0.086020574 0.038584817 -0.1441261 0.096459284 0.019505272 0.16450894 0.01890715 -0.17530246
-0.07251832 0.12656596 0.006114294 -0.18584491 0.071774654 0.071875505 0.28797638 -0.13203888
0.16600838 0.038220216 -0.18741746 -0.16065928 0.055043027 0.08315128 0.045787442 -0.19595324
-0.07857931 -0.11426211 0.08660423 0.08962379 -0.09124817 -0.0962336 0.11302064 -0.20979004
-0.040734123 0.13986109 -0.02170123 -0.14941755 0.26827133 0.010359935 -0.023611195 -0.06826093
0.19195816 -0.13876377 0.33946982 0.09468516 -0.017420225 0.008391246 -0.33885747 0.107036896
0.0094925715 0.10291259 0.016803278 -0.068677776 0.12368193 -0.1688672 -0.19434951 -0.12676726
0.031262435 0.10897233 0.039605953 -0.07980308 0.22273815 0.053025983 0.10189841 -0.13826631
-0.09836575 -0.122228704 -0.094341904 0.060112927 -0.07447423 0.13340864 -0.12991576 0.17183341
0.21186376 -0.207658 -0.056623526 -0.01696596 0.069320254 0.0010868296 0.17815098 -0.24245094
-0.020073691 0.06793922 -0.15752316 0.12903917 -0.16071096 0.12202396 0.004332443 0.16272657
-0.13088478 0.08021808 0.083941124 -0.1158291 -0.019703126 0.13635454 0.119326435 0.05533835
0.10380217 0.009614161 -0.14505321 0.0008885668 -0.21458757 -0.040311042 0.06553733 0.22886115
-0.16950451 0.15628906 0.20010526 -0.004189687 0.001974756 -0.10040443 -0.051911138 -0.15398617
-0.104430646 -0.1531431 -0.06500102 0.09422363 -0.24356069 0.07679528 0.090367354 0.17433737
-0.01885827 0.10465592 -0.12649283 -0.21293281 -0.023551615 -0.22706534 0.02568595 -0.21678694
0.059666213 0.08027093 0.044217832 -0.039043233 -0.03773374 0.01749887 0.2303951 -0.027676309
0.14417164 -0.0024860243 0.2215295 0.21606185 0.02900182 -0.060913637 -0.15619709 0.003887075
0.13208981 -0.10049119 0.08568003 -0.119787104 0.25709686 -0.08311449 -0.1333546 -0.13019253
0.092327125 -0.114156045 -0.0608656 0.03249603 -0.061558157 -0.023854291 -0.041293904 -0.26456356

conv_block1.0.bias f4 [16]
00000000: a4f9 9a3d b2ff 843d fabb 833e 5412 d73e
00000010: 001a f53d de41 633d 88f3 e33e 3ba7 b23e
00000020: f6ce c13e db2c 033d bc86 04bb 1ce1 373b
00000030: d906 9e3e 1b69 a53b e842 d13a d84f 2b3d
0.075671464 0.064940825 0.25729352 0.4200617 0.1196785 0.055482738 0.44521737 0.34893212
0.3785321 0.0320252 -0.002022191 0.002805776 0.308646 0.00504793 0.0015965374 0.04182419

conv_block1.2.weight f4 [16]
00000000: b66a 723f 53c6 663f 86a2 863f 8ff9 843f
00000010: c657 7a3f dd16 703f 0122 a13f 4132 833f
00000020: 36de 7b3f ebf2 773f 18cb 6b3f 4c7f 8e3f
00000030: cf45 963f 5de6 703f 8c71 7a3f 2f1a 833f
0.9469408 0.9014637 1.0518348 1.0388659 0.9779018 0.93784887 1.2588502 1.0249711
0.9838594 0.9685504 0.9210677 1.1132598 1.1740054 0.94101506 0.9782951 1.0242366

conv_block1.2.bias f4 [16]
00000000: 01b5 ee3d bf03 9e3d a322 8dbc 0ab5 dc3c
00000010: 5a5e 833d 3def 373e 09b8 f83c c3d3 a63d
00000020: 57af 8b3d ad73 573d 3b5b e53c 7e68 3a3e
00000030: 8419 90bc 9d02 3d3e c5d0 253e 9d3d 4f3e
0.116556175 0.07715558 -0.01722843 0.026941795 0.064144805 0.17962356 0.030361192 0.08145859
0.06820553 0.05260055 0.027997604 0.18203923 -0.017590292 0.18458028 0.1619292 0.20238347

conv_block1.2.running_mean f4 [16]
00000000: 2684 513e 6a5e 433e 08b3 853e 2545 db3e
00000010: 0e01 193e 19cc 183e f6b4 e73e 86c6 bd3e
00000020: 4edf d43e bec0 383e e2f5 533e 6206 de3d
00000030: 3f56 a03e 22e2 433e a32d d83d 86a1 4b3e
0.20460567 0.19078985 0.26113153 0.4282619 0.14941809 0.14921607 0.4525525 0.37065524
0.41576618 0.18042275 0.20699266 0.10841061 0.313158 0.19129232 0.105555795 0.19885835

conv_block1.2.running_var f4 [16]
00000000: beb1 cd3d e3ff c33d 073d 293c 376f 303d
00000010: cfdc c33c a77a 783d 8753 0c3d 07bc 843d
00000020: 20ee b53d 69b3 9e3d dbba d43d eee6 823d
00000030: e7ac f03c 7079 ac3d 8ac0 363d def1 c93d
0.10043667 0.09570291 0.010329491 0.043074813 0.023909 0.060663845 0.034259345 0.06481176
0.08883309 0.077490635 0.10387202 0.063917026 0.029379321 0.084216 0.044617213 0.09860586

conv_block1.4.weight f4 [16, 1, 3, 3]
00000000: dbc9 0fbe 5e45 01be 7a54 c63d c228 f33d
00000010: 1abe fdbe 6e2c d23d 4762 01be 0edb a6bd
00000020: 154f 13be c9d3 56be 2ec1 d2bd a2df 22be
00000030: f43a 6ebd d050 f8bd cf9f 95be 4da5 b13c
00000040: 1e7d 8dbd de08 bc3d 4ed4 d33e 36f4 5e3e
00000050: 82c0 edbe f907 31bd ecc2 64be 41cf 133e
00000060: 105f 0fbd 1e2b 983d 4ec8 b4bd 5432 413e
00000070: 69dc e9bc 1449 77be 7153 723e 22a6 b93e
00000080: 7099 b53c 8786 8bbe e5ab 80be 3b1a 92bd
00000090: a48f c7bd 64f8 253e ee0c 8e3e 995b a73c
000000a0: 7646 a2be 617e 493e 029e 4cbd 22dc 29be
000000b0: 0f2f f23b c814 103e acc2 ddbe 9b0f 95be
000000c0: c316 e13d f58d 03be be0b 2b3e 03c0 49be
000000d0: 62a2 6f3e e2e8 ed3d 2e55 843d 25af a43e
000000e0: c174 90be bd01 fabd 4e7d b13e eba6 c2be
000000f0: 46f8 e43c eebc 9abd f690 063e 9944 68bd
00000100: c5bb 823e c2dc b73c bd1c c9bc 96a3 9b3e
00000110: 39f3 94bd f88c 833e 0a42 bcbd f252 f3bd
00000120: b074 17bd 307e 763d 807c 9fbb c25d a8be
00000130: c9b3 97be e659 91be 088f 433e 06bd ee3c
00000140: fe18 883e 7f45 babc 4ffd db3c d060 663e
00000150: f932 10be f9d7 9c3e 5e4f 7cbe 91ef 3cbd
00000160: 59c0 9c3e fd80 e23d 4a7d f8bd 4da7 9dbd
00000170: e8ef ca3d e3c9 d3bd 8bcb adbe ee44 f5bb
00000180: 8ce1 2bbe 52fd 5f3e 86da c8bd 9a0a c3bd
00000190: 7483 d43d dabc 9c3e 41da 97be f2e7 e83e
000001a0: 9e5a d23e 902a dcbd e95a e43b 0d0b 7ebe
000001b0: 41b8 3dbe 68f1 00bd 8e6f b53e 1ad1 8ebc
000001c0: eb9a bc3e b8fc 87bd 4ee9 57be 722b 66be
000001d0: b2e4 d13b c4bb 01bc 6b99 9b3e d1a2 3bbe
000001e0: bf4a 373e 03c8 3e3e dfa0 243e c2ca e43c
000001f0: 8be3 953e d75f 56be 3342 9cbd 7140 9ebe
00000200: 79b2 d0be cd05 063e 6279 cabe f570 4abe
00000210: c828 8a3e 99d9 043e 433e 023e f9ba c2bd
00000220: 0cd1 fabe 15e4 43be 5a12 3bbd f90c 30be
00000230: 9b56 043e a7bc a73e ff63 283d a8b9 4fbd
-0.14041846 -0.12624118 0.096840814 0.11873008 -0.49559098 0.102623805 -0.12635146 -0.0814725
-0.14385636 -0.20979227 -0.10290752 -0.15905622 -0.05816169 -0.12124789 -0.29223487 0.021685267
-0.0690863 0.09181379 0.41372913 0.21772847 -0.46435934 -0.043220494 -0.22339982 0.1443453
-0.035002768 0.07430099 -0.088272676 0.18866855 -0.028547483 -0.24148971 0.23664643 0.36259562
0.022167891 -0.27251074 -0.25131145 -0.07133909 -0.09744194 0.16208035 0.2774424 0.02042942
-0.31694382 0.19677116 -0.049955375 -0.1658788 0.0073908637 0.14070427 -0.43312585 -0.2911347
0.109906696 -0.12847121 0.16703698 -0.19702153 0.23401788 0.116166845 0.06461559 0.32164875
-0.28214076 -0.12207363 0.34665912 -0.38017973 0.027950417 -0.07555567 0.13141236 -0.056706045
0.25533882 0.022444133 -0.024549836 0.30398244 -0.072729535 0.25693488 -0.091922835 -0.11881055
-0.036976516 0.060178936 -0.0048671365 -0.32884032 -0.29629353 -0.283889 0.19097531 0.029142868
0.26581568 -0.022738216 0.026854185 0.22497869 -0.14081945 0.30633524 -0.24639651 -0.046126906
0.306155 0.11059759 -0.12133272 -0.07697926 0.0990904 -0.10341241 -0.33944353 -0.0074850237
-0.16785258 0.21873978 -0.09807305 -0.095235065 0.10376635 0.30612832 -0.29658702 0.4548946
0.4108476 -0.10750306 0.006968845 -0.24808903 -0.18527319 -0.031480223 0.35436672 -0.017433692
0.36836943 -0.06639999 -0.21085092 -0.2247751 0.0064054364 -0.007918302 0.30390486 -0.18323828
0.17899607 0.18630986 0.16076992 0.027928714 0.29275164 -0.20934997 -0.07629814 -0.3090854
-0.40761164 0.1308815 -0.39545733 -0.19769652 0.2698424 0.12973632 0.12719063 -0.095083185
-0.48987615 -0.19129975 -0.0456718 -0.17192449 0.12923662 0.32761118 0.04111099 -0.050714165

conv_block1.4.bias f4 [16]
00000000: 3b6e 0b3b 373c 7d3e f4fb 443c 69bc 2dbe
00000010: 3f97 693d 0d33 c5bd 43d9 ca3d 5d4a 0fbe
00000020: 1203 813e 759b 7cbe c68d 8bbe 9140 45bc
00000030: 9a4c 193e f8aa ad3d f3a9 6b3e 2150 103e
0.002127542 0.24730001 0.012022961 -0.16966404 0.057029005 -0.09628878 0.09904721 -0.13993211
0.25197655 -0.24668677 -0.27256602 -0.01203932 0.14970627 0.08479875 0.23014049 0.14093067

conv_block1.5.weight f4 [16, 16, 1, 1]
00000000: 561f a83e 7fe3 473d 4387 cebe e2e5 c43d
00000010: 1df6 bd3d 39c2 abbd 7c97 fbbd d1ab ec3d
00000020: ccdf 6b3e 5707 cdbd 1d7c 20be 6697 cabe
00000030: f0cf 503e 364d d0bd bb93 97bd 7bc8 12be
00000040: 1598 8cbd 6f4a ebbd c43f 5e3e 30fb 273e
00000050: 96a3 d5bc ad24 f53c 4e8e 28bd d3dd 293d
00000060: 2a1f d43d d381 903e 9662 81be 9c27 be3d
00000070: 8198 2a3e 895e 8fbe b764 ecbd 41ee 38be
00000080: 4186 5cbe 1934 383d c1e5 623c 6837 213d
00000090: ef74 853d 9a27 d3bd 554c 9c3d 2471 e73d
000000a0: 7b76 963e f7c3 d5bc 34c9 d93d 2178 e03d
000000b0: 2108 433e 85cc 6b3e ca65 c7bd 76bf 2b3e
000000c0: 4cbd 5d3e ccdd 813e bcd0 1fbc c219 c03e
000000d0: 7be9 ff3d 7bd2 6bbe e0eb a63e c1dc df3d
000000e0: 4b09 83bc 5d5b 2dbe 98de 53be 17da 5fbb
000000f0: 5378 703e 990a cb3b 94ac 1fbd 7cbd 0e3e
00000100: a6d6 81be c7d8 153e 0ea2 65be defe 01be
00000110: 0139 473e 3cb8 19bd 29cd a03d f04f 373e
00000120: e391 37be fa9b 4d3e 3356 22bc af93 6cbe
00000130: 8835 febd 27c6 ff3d 3c20 a43e 1421 58ba
00000140: c35c 1a3e a237 9abd fbff 21bd 16f0 363d
00000150: 1e91 023b 04b6 713e 5ea8 173c 47f3 90bd
00000160: 8bc2 073e 950d ecbd d18e 503e 7296 03bf
00000170: 8b47 adbd 5e3c e9bd 833d a33e 7f61 993e
00000180: e0c0 07be 9273 80be d57b 9dbe cb27 b43e
00000190: 1166 8a3d c573 3d3d 9d39 693e 448e 7cbe
000001a0: b7f8 f23b a264 93bd da2a 1e3c cd2d 343d
000001b0: 9a57 183e 26da fabd f0f6 9d3d a3f7 06bd
000001c0: 53a3 183e ce13 703e aff6 62be 5f1f 20be
000001d0: 034a c33e a14a a13c 53c9 8d3e b903 80bd
000001e0: cf97 3cbe bc68 71bc 4b6e ea3d 57d3 093e
000001f0: 798e d3bd 1dac 8fbd bd08 b0bd 386a 993d
00000200: 7220 3bbd bc7b 193d a64d 9e3d 7258 43be
00000210: d556 2f3e 5d98 2b3e ed59 eebe 0e6f dcbd
00000220: a7d2 093e f039 953d 3439 c4bb 48cb 77bd
00000230: 0045 adbd 08cb 733e 2da0 04bd 9b64 08be
00000240: 1991 17be a8bc 53bd 100c 60be e6e4 0abe
00000250: 6fa4 513e 4869 b2ba 7231 0fbe 2b1f 78bd
00000260: 76da 023c c9d9 0d3e 96f1 14be 6616 1ebc
00000270: 93eb 2a3e 05d4 ddbe 2a8f 10be cf3c 93be
00000280: 23dc e0bd b13b ac3e e097 be3d 128a 87be
00000290: 28bf 55be c6fc d73c 8786 5bbe dc53 203e
000002a0: 621c 8cbd ba9b 253e d641 09be 529d a03d
000002b0: 1b1b 7abe e082 a8bd 68c8 87bd 3e13 c33d
000002c0: abb2 bc3d 215a 7fbd aaeb 42be 3a85 9fbd
000002d0: fabb 50bd 60b5 a03e f825 db3c e671 25bb
000002e0: 1672 62be 2733 353d 921a e0bc 5981 403e
000002f0: 179b a13c ee11 773e bff4 593e e8d2 abbe
00000300: 895e 7b3e 385a fabd c5b6 b23c 2bcf 44be
00000310: 778d 48be 0b95 983e 139d 6abe 633d 533e
00000320: 116e 17be 24f6 a2be b6d7 533e 2510 173d
00000330: e818 21be e3df 873d 4e53 e9bd 9d1a 19bc
00000340: 5aed e0bd 485f 473d 7e78 1b3e dbb0 82bd
00000350: 160b 79be 4d95 92bb 4920 08be 4c88 a7be
00000360: dd14 5cbe 22f3 3ebe ef47 153d 93e3 6f3e
00000370: 88b4 93be a52e b7bd c9f1 1c3e 94f7 cb3d
00000380: e25a 15be cdff 203d c535 983e d234 4d3e
00000390: d283 a4be 7522 64bd 88d8 2f3c b4fd 0fbe
000003a0: be28 003e df90 303c bbf1 a1bc ef6d 88be
000003b0: 45e1 933e b662 b33c 8958 07be f040 39bd
000003c0: 0d06 f63d 24bc b63e 920c 443e 7925 e5bd
000003d0: 4526 013c 8710 b5bd 83be e7bd ac4e 7c3e
000003e0: d0cb 8bbc 2285 8cbd 9fac ce3d 8c23 79be
000003f0: 4645 3ebc f512 39bd b3ff 8abd 3b31 4fbe
0.32836407 0.04880094 -0.40337572 0.09614159 0.09275458 -0.083866544 -0.12284753 0.11556209
0.2303459 -0.100111656 -0.15672345 -0.39568633 0.20391822 -0.10170977 -0.07401224 -0.1433429
-0.06864945 -0.114888065 0.21704012 0.16404414 -0.02607898 0.029924715 -0.041151337 0.041471314
0.103575066 0.28224048 -0.25270528 0.09284899 0.16659738 -0.28001812 -0.11542647 -0.18059637
-0.21535589 0.04497156 0.013848723 0.03935948 0.06516444 -0.10310288 0.07631747 0.11300877
0.29387268 -0.02609442 0.106340796 0.10960413 0.1904607 0.23027237 -0.097362116 0.16772255
0.21654242 0.2536453 -0.009754356 0.37519652 0.12495705 -0.2302951 0.32601833 0.10930777
-0.015995642 -0.16929384 -0.20690382 -0.0034157091 0.234834 0.0061963317 -0.038982943 0.1393947
-0.25359076 0.14633475 -0.224251 -0.1269488 0.19455339 -0.037529215 0.07851631 0.17901587
-0.17926745 0.20079032 -0.009908247 -0.23103212 -0.12412554 0.124889664 0.32055843 -0.0008244675
0.15074448 -0.07530142 -0.039550763 0.044662558 0.0019922922 0.2360459 0.00925645 -0.070776515
0.13257806 -0.11526028 0.2036698 -0.51401436 -0.08460911 -0.11388467 0.31882867 0.29957196
-0.1325717 -0.25088173 -0.3075854 0.3518661 0.06757749 0.046252985 0.22775884 -0.24663645
0.007414903 -0.071969286 0.009653771 0.04398899 0.14877167 -0.1224864 0.07713115 -0.03295101
0.14906053 0.23445055 -0.22164415 -0.15636967 0.38142404 0.019688906 0.2769266 -0.0625071
-0.18417285 -0.014734443 0.11446818 0.13459526 -0.10329909 -0.0701525 -0.08595417 0.07490963
-0.04568524 0.037471518 0.07729654 -0.19076708 0.17122968 0.1675734 -0.46552983 -0.107633695
0.13459264 0.07286441 -0.0059882645 -0.0604966 -0.08460426 0.23807919 -0.032379318 -0.13319628
-0.14801444 -0.05169359 -0.21879601 -0.1356388 0.20472883 -0.0013611699 -0.13983706 -0.0605766
0.007986655 0.1385261 -0.14545283 -0.009648895 0.16691427 -0.4332582 -0.14117113 -0.2875733
-0.10979488 0.3363929 0.093063116 -0.26472527 -0.20873702 0.026365649 -0.21438037 0.1565699
-0.06841351 0.16172686 -0.1340402 0.078425065 -0.24424402 -0.082280874 -0.06630021 0.095251545
0.09213766 -0.062341813 -0.19035211 -0.07789083 -0.05096052 0.31388378 0.026751503 -0.002524489
-0.22113833 0.044238236 -0.02735642 0.18799342 0.019727273 0.24127933 0.2128477 -0.33559346
0.24547781 -0.12224239 0.021815667 -0.19219653 -0.19585215 0.2980121 -0.22911482 0.20628886
-0.14788081 -0.31828415 0.20687756 0.03688063 -0.15732157 0.066345 -0.11392842 -0.009344724
-0.10982771 0.04867485 0.15182683 -0.06381389 -0.24320635 -0.0044733644 -0.13293566 -0.32721174
-0.21492334 -0.18647435 0.036445554 0.23426656 -0.28848672 -0.089444436 0.15326609 0.09959331
-0.1458545 0.03930645 0.29728523 0.2003968 -0.3213182 -0.055696923 0.010732777 -0.14061624
0.12515542 0.010776727 -0.019768586 -0.26646373 0.28882805 0.021897655 -0.13217367 -0.045227945
0.12012873 0.35690415 0.1914542 -0.11188788 0.007882659 -0.08841043 -0.11315634 0.24639386
-0.017064959 -0.068613306 0.100915186 -0.24329966 -0.011613196 -0.045184094 -0.06787052 -0.20233624

conv_block1.5.bias f4 [16]
00000000: 43b5 22be bf4d 103d 61f8 073d cd7a 633e
00000010: a680 443e 740d 6cbe ad5d 1b3e c65d 3a3d
00000020: 33f7 ca3e 684e 90be 94eb fabd 7738 f23d
00000030: 3209 51bd c554 7a3c 56f8 12be 9471 1fbd
-0.15889458 0.035230394 0.033195857 0.22214814 0.191897 -0.23052007 0.15172453 0.045499586
0.39641723 -0.2818482 -0.12251964 0.11827176 -0.05103416 0.015279 -0.14352545 -0.038926676

conv_block1.7.weight f4 [16, 16, 3, 3]
00000000: 3feb 9abc 2a22 9dbc c54f ecbb 4f76 04bd
00000010: 86f4 35be b89c a2bd 834a 2dbd b7cf 03be
00000020: aaee fe3d f37c c4bd 45f1 c5bc 7d82 4c3c
00000030: 1d86 4fbc 3a97 e5bb ffc1 833d 39a8 89bd
00000040: 4c5d d1bc 5811 a7bc 061b 16bd 4358 5d3d
00000050: 30b2 debd 0b1a b13d 110c cfbc 6f13 cd3d
00000060: ca13 333d 1723 293e e9b6 c33c 3b11 3f3c
00000070: 35da 423d 4895 ee3d cc56 bc3b 3066 993d
00000080: ec22 5d3e cb54 233e 5c67 033e b258 293e
00000090: fdb1 41bd a090 453c 95fb d8bd 1910 f6bd
000000a0: c75d 29be 6731 18be 48c3 29bc f841 8fbd
000000b0: b987 ca3b 3b43 9a3d 9417 c33d b642 7d3d
000000c0: a3bf 11bd d11e d3bd 3338 bcbd 5bd3 3cbe
000000d0: 598c 88be 3365 24be 0826 763c 2389 1e3d
000000e0: c79a e53d 49bd 84bd 096c 403c 0edf 293d
000000f0: 6c64 103d 5731 03be 1345 d9bc 94d7 8a3d
00000100: fe1e 94bd c0e5 12be b510 11bd cadb 85bc
00000110: 2280 d7bd 6aa3 dc3d 6b1e f6bc 4f55 bebd
00000120: 788b 8fbc 27f7 48bc d843 46bd 2b5b 28be
00000130: c2d1 e8bc 1678 dabd 542f c5bd 33a0 32bd
00000140: 9ce3 99bd 1bd2 c03c f8ba 713e e017 033e
00000150: d9be 29bd db12 01be fe82 313d 41ec c93d
00000160: 19b4 e03c 5372 81bd 5c20 66bc 643e 2ebb
00000170: 1f9c ce3c e00d 083e 2914 ef3d d9a9 3dbd
00000180: 433c dc3d ebb9 8d3d 0c33 d43c 1ccb 033e
00000190: 961f b53d 202f adbd 9165 bf3c 97bf 66bb
000001a0: ccf4 42be 2685 8a3b 9215 a2bd 24dc a5bd
000001b0: d73f 863c 896f c83c d354 493d c836 063e
000001c0: 0020 e43d 03d8 b23d 0ef4 103e a487 0f3e
000001d0: 8e9f 223e 1fe9 e93d 0915 6d3d ffe3 0a3b
000001e0: 9058 803e e78e 0c3e 352b e03c a285 133e
000001f0: 7d62 943d 7c23 c1bb a156 f6bc 5686 b7bd
00000200: 53dd 23bd 9ba3 36bd 392e d5bb 5104 453c
00000210: cc20 2d3d d65d 483c b31d 3abc f9c1 32be
00000220: 5a66 693b d8f8 863d 8cd6 ebbd cc98 05be
00000230: a385 aebd d55c 2dbc 3be6 18be b17d 96bd
00000240: 91bb eabd b323 62bd b77a 39bc 2549 653c
00000250: f85a 81bc c250 d0bc 8ae3 8ebb 1d26 123d
00000260: 585f ea3d 4668 a3bd b92d c73c 0845 9fbd
00000270: e33a f6bd 969b 633d 3fc2 12bb 4881 37bd
00000280: 634a 37bd e822 11bd 27cf bdbd 1129 02bc
00000290: 2c38 05bd c058 67be 8384 e63c ecca a73a
000002a0: 7c63 4a3d 8b3f fcbc 10e4 f9bb 398f 903d
000002b0: eed5 3c3d fddf 253e b5ae d1bd c489 26be
000002c0: 531d 09be 067e 0e3c c3b4 42bd 25ab a73d
000002d0: 4a6a 24bd 5643 f03b 47e9 483d 69a1 9c3d
000002e0: 845c a4bd 2110 39ba 60b1 db3d 8720 cbbc
000002f0: da33 0dbc c8d3 a8bd b836 30be 94a7 06be
00000300: 7725 5ebe ef4e 34be d47b d5ba 836c d5bd
00000310: 0f88 3dbe 9167 043a 1d28 0bbc 2b7a babc
00000320: 266f 3c3c 3b4a 49be a7ad 83bc 034e a33c
00000330: bf38 13bd 80df a7bd ee74 e1bc 18d6 b43d
00000340: 5402 423e 8ffd 623d f344 e93d 84c9 923d
00000350: af44 653c 92ff 9a3d aed4 423e 2996 093d
00000360: 008e 803d 7d92 df3c b42b 0abd c0ad 3e3e
00000370: c1fc f43d b8eb a6bd ebb9 dfbd 6d89 e4ba
00000380: b23e debd 25f9 10be b5cb 64bd a8c4 a73d
00000390: 332e 643a 8a4e 0e3d 62c6 d03d 9845 303e
000003a0: 96cf 0d3c e777 19bd 353b a9bd df50 263c
000003b0: 08fb dc3c 0b14 cf3d 89aa 423e a823 0f3d
000003c0: bc37 733d 88fb db3d 4be6 263d b5a9 babc
000003d0: 896f fcbc f300 9cbd 91f3 003e afa6 063e
000003e0: 59c7 4cbd b70e 323d 7600 5a3d 0e79 e2bd
000003f0: 5c30 febb fd97 06bc d0ed a5bd da75 2bbd
-0.018911002 -0.01918133 -0.0072116577 -0.03233939 -0.1776906 -0.07940048 -0.042307388 -0.12872206
0.12447865 -0.09594145 -0.024162898 0.012482283 -0.012666252 -0.007006553 0.06433486 -0.06721539
-0.025557183 -0.020394012 -0.036646865 0.05403925 -0.1087383 0.086475454 -0.025274308 0.10013472
0.043720044 0.16517292 0.02389093 0.011661823 0.04757138 0.11649567 0.0057476517 0.07490194
0.21595353 0.15950315 0.12832397 0.16537741 -0.047288883 0.012058407 -0.105948605 -0.12014789
-0.1653968 -0.14862595 -0.0103615 -0.069950044 0.00618073 0.075323544 0.095259815 0.0618312
-0.03558315 -0.10308612 -0.09190407 -0.1844 -0.26669577 -0.1605423 0.015023716 0.038705003
0.11211162 -0.06481416 0.011744508 0.041472487 0.03525202 -0.1281179 -0.026522195 0.067793995
-0.07232474 -0.14345455 -0.035416324 -0.016340155 -0.10522486 0.10773356 -0.030043801 -0.09293615
-0.017522559 -0.012265957 -0.048404545 -0.16441028 -0.028420333 -0.10667436 -0.09628168 -0.04360981
-0.07514116 0.023537686 0.23606479 0.12802076 -0.041441772 -0.12604849 0.043337815 0.09859515
0.027429627 -0.06320634 -0.014045801 -0.002658748 0.025220929 0.13286543 0.11673767 -0.046304557
0.107536815 0.06920227 0.025903247 0.12870449 0.08843915 -0.08456254 0.02336386 -0.0035209411
-0.19038695 0.0042272983 -0.079142705 -0.08098629 0.016387863 0.024467247 0.04915316 0.13106835
0.11138916 0.08732607 0.141556 0.14016587 0.15881178 0.114214174 0.05788139 0.0021193025
0.25067568 0.13726388 0.027364353 0.14406446 0.07245348 -0.0058941226 -0.030070605 -0.089611694
-0.040005993 -0.04458962 -0.0065057543 0.012024955 0.042267606 0.0122294035 -0.01135962 -0.17456807
0.0035613985 0.06590432 -0.11515531 -0.13046569 -0.08521583 -0.010581215 -0.14931576 -0.073481925
-0.11461557 -0.055209827 -0.011320761 0.01399449 -0.015790448 -0.025429133 -0.004360621 0.03568088
0.114439666 -0.07978873 0.024313794 -0.077768385 -0.120229505 0.0555683 -0.0022393612 -0.044801027
-0.044748675 -0.03543368 -0.09268027 -0.007944361 -0.032524273 -0.22592449 0.028139358 0.0012801564
0.049411282 -0.030792018 -0.007626064 0.070585676 0.046102457 0.16198726 -0.10238401 -0.16263491
-0.13390093 0.0086970385 -0.04753567 0.0818694 -0.040140428 0.007332246 0.049050596 0.07647974
-0.080254585 -0.00070595933 0.10727191 -0.024795784 -0.008618319 -0.08243519 -0.17208374 -0.13149863
-0.21693979 -0.17608236 -0.0016287514 -0.104210876 -0.18508933 0.0005050833 -0.0084934505 -0.022763332
0.011501109 -0.19657223 -0.016074015 0.01993466 -0.03594279 -0.08196926 -0.027521577 0.08829898
0.189462 0.055417594 0.11390104 0.07167342 0.013993426 0.075682774 0.19026443 0.03359047
0.06277084 0.02729153 -0.033733085 0.18620968 0.119622715 -0.081504285 -0.10924133 -0.0017435976
-0.10851802 -0.14157541 -0.055858333 0.08191806 0.0008704394 0.03474287 0.101940885 0.17214048
0.008655449 -0.037467863 -0.08263246 0.010151117 0.02697517 0.10111245 0.19010366 0.034946114
0.059379324 0.10741335 0.04074697 -0.022786 -0.030814903 -0.076173685 0.12592913 0.13149522
-0.0499948 0.043471064 0.053223096 -0.110582456 -0.0077572297 -0.008214948 -0.08102 -0.04186044

conv_block1.7.bias f4 [16]
00000000: c816 a43d 00c5 913e ea0e 80bd 0343 c13d
00000010: 46cf 193d 1a5c 103e 3467 873d 6a75 653d
00000020: 8a36 9abd d5e0 443e 85a1 aebd 6eda 75bd
00000030: 1ded 7b3b 2d73 823e fbc9 3ebc 76fa 2e3e
0.08012158 0.28470612 -0.06252845 0.094366096 0.037551187 0.14097634 0.06611481 0.056020178
-0.07529934 0.19226392 -0.08526901 -0.060022764 0.003844089 0.25478497 -0.011644836 0.17087731

conv_block1.9.weight f4 [16]
00000000: f6ef 763f 66f1 7b3f b855 763f bae9 443f
00000010: f2ae 7f3f bb44 833f 2400 793f d31b 953f
00000020: 39a9 643f 009d 8f3f 081b 7c3f 425b 653f
00000030: 48e8 693f c7b8 8a3f 5246 813f b674 8f3f
0.964599 0.9841522 0.96224546 0.7691914 0.9987632 1.025535 0.9726584 1.1649116
0.89320713 1.1219788 0.98478746 0.89592373 0.9137006 1.083764 1.0099585 1.1207492

conv_block1.9.bias f4 [16]
00000000: 1ab5 b03d 31ca 0d3e aeac 9fbd d056 86bd
00000010: b9e5 5c3e 361b 26bd f05c 5c3d ce60 3abd
00000020: 64cb 95bd 5d03 e73d 7395 07be b438 07bd
00000030: 88f7 233c a116 fa3c 37d4 80bd b696 78bd
0.086282924 0.13846661 -0.07796608 -0.06559527 0.21572007 -0.040553294 0.05379957 -0.045502476
-0.07314184 0.11279938 -0.13240604 -0.03301306 0.0100077465 0.030528368 -0.06290477 -0.060690604

conv_block1.9.running_mean f4 [16]
00000000: eaca 893e 2279 a53e 5a1f 863e 8813 9f3c
00000010: aca0 433e 8312 003f 8263 343e d1c9 003f
00000020: 38b9 0d3e 571d 9c3e 5fd1 d93d b4c2 213e
00000030: a3b0 003e fb93 1c3f 48b1 563e e587 0f3f
0.26912624 0.3231898 0.26195794 0.019418493 0.1910426 0.50028247 0.17616084 0.5030795
0.13840187 0.30491135 0.106356375 0.1579693 0.12567382 0.611633 0.20966065 0.56066734

conv_block1.9.running_var f4 [16]
00000000: d4b8 063e 399c df3d cb8f b73d e1ef 063c
00000010: e6b2 ac3d b47d 3a3e da80 b23d 8ee2 723e
00000020: e6e4 8e3d 7814 b53d e999 713d aabf 753d
00000030: ebe7 733d 0cf7 0e3e bce5 fa3d 84ea 6e3e
0.13156444 0.10918469 0.08962973 0.0082359025 0.0843256 0.18212014 0.08715983 0.23719236
0.06977253 0.08841795 0.05898467 0.05999724 0.059547346 0.13961428 0.122508496 0.23331648

conv_block1.11.weight f4 [16, 16, 3, 3]
00000000: a99c 013e d79c bf3d ef4a 6fbd d5c1 353d
00000010: a7ea 3e3d 35e7 01be 4fb0 703d 4c48 15be
00000020: 73c9 3ebe 0372 6cbd d71d 10be 2cb2 78bd
00000030: 4a23 d9bd 6709 ddbd 9117 12bd d6a1 b7bd
00000040: 22ee 81bd fdc0 8e3c 6efa f4ba cab9 acbd
00000050: db8b 41bd 7f06 75bd 30ee 72be 734f 3b3d
00000060: 4008 42bd 5023 6abe 6614 853c a4a3 e8bc
00000070: 4c24 2dbe 8588 f8bd 7993 0abe 92bf 10bd
00000080: d0bb 6b3d e442 1dbe 3318 a9bc a94e 58bd
00000090: 5557 2bbe ab24 4f3d 499c 113e 43c7 013c
000000a0: 88fc e03b c0d6 1b3e 15af c73d 6cc4 5d3d
000000b0: aef9 013d dcd2 71bc be46 e7bd 8119 b1bd
000000c0: 0b8b 39bd 0aa3 3dbd b376 64be 9efe 92bd
000000d0: 13cc 2ebe 39e9 81be 874f b13d 1176 843d
000000e0: 9e2a 9fbd 2e7d 69bd 7585 5b3d ee6f c93d
000000f0: cac0 a8bd be4b 2bbe fbea bebd 3256 913d
00000100: b45a cfbc ce86 c23d 6630 a33d 5216 0bbe
00000110: d0c2 393d 05f3 86bd b0b4 3abd ddb6 0a3b
00000120: 19cb 47bc 042d d7bd ef29 87bd 095e 9f3d
00000130: a622 ddbd 07d1 073c a9d4 66bd 27c8 e4bd
00000140: e57a 67bc 8cd7 15bb 8652 1b3e cf17 3b3d
00000150: be93 ba3d 0765 ba3d 4e5a f6ba f71a 213e
00000160: 1b31 b5bc 515f 903b 65e2 afbd a467 b03c
00000170: ca7a 043e 1cbf 3cbe df4d a3bd bbed e8bd
00000180: b374 1dbc 0204 ed3c aec5 8b3c aff0 29bd
00000190: 1708 1dbc aec9 a33d 58f3 70bd ed30 1dbd
000001a0: 275f a4bd 2407 a53c 3f76 223d 9e67 903d
000001b0: 1833 123e e4bb 043e 36f2 d93d 9d00 acbc
000001c0: d166 44bd be76 fdbd 3e28 30bd 66d8 05bc
000001d0: 0abe bc3d 5676 c03b 1b90 343e 2580 903b
000001e0: 3e66 5abd 1fb2 3ebd bd25 fcbc e953 543d
000001f0: f436 c53b 914e 9abd b75f 90bd 39df 203d
00000200: 3f33 133d 5894 f6bc ac8b 39bc 1582 6cbd
00000210: 77fb 913c 1a6a 863d db0f 333d 719e 27be
00000220: 6e09 d3bc b018 143e c1fe 46be 355c e7bd
00000230: 7473 ac3d c005 8f3c 418d 22bd 763d da3c
00000240: 086c 59bd e18b 833d bff7 843c ead2 56bd
00000250: c2c7 c4bd c7bb 883b 294c ae3c 482e 61bd
00000260: 994a 97bd 739f 4f3d 213b 823d 2ad6 043e
00000270: fd69 e039 4c20 9abe 305a 38be 662b d73c
00000280: 2b34 79bd c6cf fabd 9435 2dbe 5e1e f63c
00000290: 1277 b93d b39c 003d 645f 03bc 501b 3a3d
000002a0: 29cd 78bc 2038 f1bc 25b1 7c3d e595 553d
000002b0: 93a0 833d 4b03 bb3c 6440 143d a6de a6bc
000002c0: e866 fa3a dcf5 cabb fa67 303c 10a7 b1bd
000002d0: 2407 07be 59bf 923d 5292 2a3e d679 803c
000002e0: 173c c13b 955b e63c 8715 8bbc 60f3 2bbe
000002f0: 0420 82bd 01b0 1ebe f5e7 2dbc 94ff ef3d
00000300: dd62 073b 96a3 903d 0e27 863e 92d4 9abd
00000310: 6b4c 6abd 0234 e93c 33cb 1ebc 9fdd d1bc
00000320: f4d8 b1bc 7d51 da3d bc26 d6bd 768b 8c3d
00000330: 7749 263e 08d0 eb3d f00d 213d 0f4d c9bb
00000340: 08f1 b7bc 3393 17be 55d3 293d f489 86bd
00000350: 3652 51be 8caa b5bc c2ae fc3d 12e0 bebd
00000360: 7e0d abbd 4268 e2bd faed 243c 712d b0bd
00000370: 5666 78bd 7f7e 7c3d 7bea 1d3c 9f07 90bd
00000380: f169 05bd 1342 b5bd 5e7c 183d 4bac 183e
00000390: fa00 65bd f080 52be 3f0d 06be 351a 00bd
000003a0: 5845 f73c 3aa7 023d 960c 2bbd d7f7 46bd
000003b0: a952 ae3c fa65 113e 3592 1b3b ee32 a13c
000003c0: 886e ec3c 768c d4bd 1bcd 60bc 0593 833d
000003d0: 1ac9 a4bd 96f3 a4bd f18a 6d3d b33b 053e
000003e0: df46 323d de38 453d f296 afbc 900a 57bd
000003f0: 063c 0abe d91f 8f3c d363 f93c 2f55 d1bc
0.12657417 0.09356087 -0.05842107 0.044374306 0.0466105 -0.12685855 0.05876189 -0.1457836
-0.18631534 -0.057725918 -0.14073883 -0.060716793 -0.10602434 -0.10792809 -0.035667006 -0.08966415
-0.06344248 0.017426008 -0.0018690357 -0.08433874 -0.047252517 -0.05982065 -0.23723674 0.045730066
-0.04737115 -0.22865033 0.016245078 -0.028398342 -0.16908377 -0.12135414 -0.13532819 -0.035338946
0.05755216 -0.15357548 -0.020641422 -0.05280939 -0.16732533 0.05057208 0.14219774 0.007921043
0.0068660416 0.1521864 0.09750191 0.0541424 0.031732254 -0.014759745 -0.1129279 -0.086474426
-0.045298617 -0.046298064 -0.22310905 -0.071774706 -0.17070036 -0.25373247 0.08657747 0.06467832
-0.077718005 -0.057004146 0.05359407 0.09835802 -0.082398966 -0.16728112 -0.09322163 0.070965186
-0.025311805 0.09498368 0.07968216 -0.13582733 0.045351803 -0.06589321 -0.045582473 0.0021166124
-0.012194418 -0.10506633 -0.06599795 0.07781608 -0.10797624 0.008289582 -0.056355152 -0.111709885
-0.014128421 -0.0022864072 0.15168199 0.045677003 0.09110211 0.09101301 -0.0018795223 0.15732943
-0.022118142 0.004405894 -0.08588103 0.021533795 0.12937465 -0.18432277 -0.07973837 -0.113734685
-0.009610343 0.028932575 0.017062034 -0.0414893 -0.009584448 0.07997452 -0.05882582 -0.038376737
-0.08025961 0.020145006 0.03966355 0.070510134 0.14277303 0.129623 0.10641901 -0.020996386
-0.047949616 -0.12376164 -0.043007128 -0.008169269 0.092159346 0.0058734817 0.17633097 0.0044098073
-0.053320162 -0.04655659 -0.030779714 0.051837835 0.006018514 -0.075345166 -0.07049506 0.03927538
0.035937544 -0.030100033 -0.011324804 -0.057741243 0.017820103 0.06563206 0.043716293 -0.16369034
-0.025761332 0.14462543 -0.19433118 -0.11296884 0.084204584 0.017458797 -0.03968549 0.026640635
-0.053081542 0.06423164 0.016231416 -0.052447237 -0.09608413 0.0041727754 0.02127655 -0.054975778
-0.07387275 0.050689172 0.06358934 0.12972322 0.00042803577 -0.30102766 -0.18003154 0.026265811
-0.060840767 -0.12246661 -0.1691497 0.030043777 0.09055914 0.03139944 -0.008018348 0.045436203
-0.015185633 -0.029445708 0.061692376 0.052144904 0.064271115 0.022828719 0.03619422 -0.020369839
0.0019104155 -0.0061938595 0.010766977 -0.08674443 -0.13186318 0.07165403 0.1665738 0.015683096
0.005897056 0.028119842 -0.016978038 -0.16792059 -0.06353763 -0.15496828 -0.010614385 0.117186695
0.0020658292 0.070624515 0.2620167 -0.07560076 -0.057201784 0.028467182 -0.009692001 -0.025618372
-0.021709897 0.10660074 -0.10456607 0.068625376 0.16238962 0.11514288 0.039319932 -0.0061432193
-0.0224538 -0.14802246 0.041461308 -0.06569281 -0.20441517 -0.02217605 0.1233802 -0.09320082
-0.08352183 -0.11055042 0.010066504 -0.08602417 -0.06064447 0.061644074 0.009638424 -0.070327036
-0.032571737 -0.08850493 0.03722798 0.14909475 -0.055909134 -0.20556998 -0.1309099 -0.031274993
0.030184433 0.03189776 -0.04176005 -0.048576202 0.02127965 0.14199057 0.002373827 0.019677605
0.0288613 -0.10378353 -0.013720776 0.06424526 -0.080461696 -0.08054273 0.057993833 0.13011055
0.04352462 0.048149936 -0.021434281 -0.052500308 -0.1349946 0.01747124 0.030443108 -0.025553314

conv_block1.11.bias f4 [16]
00000000: dd90 043e 5bc1 193e f001 2fbd d271 803e
00000010: 5ffb b23e cfb6 413e d84a 593e 98b9 323e
00000020: c9cc e33d 4f66 803e 1e08 e03d 6562 04bd
00000030: 8bc3 fc3d 89e1 843e 4568 1d3e 4ba0 a13d
0.12945886 0.15015166 -0.042726457 0.25086838 0.34957406 0.18917392 0.21219957 0.17453611
0.11123044 0.25078055 0.10939048 -0.0323204 0.12341984 0.2595332 0.15371807 0.078919016

conv_block1.13.weight f4 [16]
00000000: 2620 743f 3bb4 873f 639c 6c3f 86d2 833f
00000010: 0ed2 8e3f 7177 813f f9ff 6c3f 36c6 753f
00000020: e209 933f bab9 7b3f 9179 7d3f 9d46 6c3f
00000030: 6174 723f ffb4 873f 0a8e 7d3f c1ca 7f3f
0.95361555 1.0601877 0.9242613 1.0298622 1.1157854 1.0114576 0.92578083 0.9600557
1.1487391 0.9833027 0.9901362 0.9229525 0.9470883 1.0602111 0.9904486 0.9991875

conv_block1.13.bias f4 [16]
00000000: 5bc2 e6bb 04df db3c 4588 a63d de3e b43b
00000010: d9e6 9fbd 2983 30bc 07b5 4dbe fe03 d0bc
00000020: 02c5 6cbd e79f 3ebd 807f b0bd 925f 823d
00000030: 63fd 7e3e 525b 0dbc 585f 203e 9dae a83d
-0.007042212 0.02683974 0.0813146 0.0055006584 -0.078077026 -0.0107734585 -0.20088588 -0.025392529
-0.05780507 -0.046539214 -0.08618069 0.06365885 0.24901347 -0.0086277295 0.15661371 0.0823643

conv_block1.13.running_mean f4 [16]
00000000: b169 573f 87b1 503f 4ac5 183f 6a43 823f
00000010: e797 7d3f f638 6e3f 6d53 3b3f b8fb 5d3f
00000020: ecb4 3c3f 018d 4f3f 7864 353f a123 0f3f
00000030: 38fc 743f 8021 333f 1b09 623f 2504 f63e
0.8414565 0.81520885 0.5967604 1.0176823 0.9905991 0.93055665 0.7317417 0.8671222
0.73713565 0.8107453 0.7085643 0.5591374 0.95697355 0.6997299 0.88295144 0.48050037

conv_block1.13.running_var f4 [16]
00000000: 3d8b 473f 51f4 a63f dd99 9d3f 8803 d83f
00000010: 00a6 a93f 3945 7c3f 6bc1 503f adf9 663f
00000020: a2c5 a43f ffae 543f bf5f 963f 940e 543f
00000030: 119e d33f a012 813f 8bf0 983f d317 4b3f
0.77946836 1.304331 1.231258 1.6876078 1.3253784 0.98543125 0.8154513 0.90224725
1.2872813 0.8307952 1.1747969 0.82834744 1.6532613 1.0083809 1.1948408 0.7933323

conv_block2.0.weight f4 [16, 16, 3, 3]
00000000: 0e6b da3d 7cb1 52bd e8ed 8c3d 3be1 143e
00000010: 5a89 32be e35c 05be 0c9f 19bd a859 9cbd
00000020: 9ce2 b63c 8161 f4bc 93f3 a1bc 3c56 d0bb
00000030: 95dd 5ebe 2e55 9dbe 55ea 25bd 3882 10bd
00000040: 25a6 863d 5aad fb3d 1bce ad3d d75a bd3d
00000050: 54cf 053e 4a36 34bd 097f d8bc 8467 c3bc
00000060: 80e2 83bd 546e 63bc b19d 383e f93d 8f3d
00000070: 546f 353d 4cc0 98bd 639b b53b dc15 4abc
00000080: 0cec 4dbd 06d6 98bd 2980 5b3d f479 f6bb
00000090: d8c8 9abd 62da 053e 6cae 083c ecb2 d3bc
000000a0: dd13 b33d 17bc 273c a145 643d 6314 45be
000000b0: 46e2 013d cb58 c33d 5728 bd3d 8b0e 23be
000000c0: 257a 25be f189 adbd 160e 18be 7691 323d
000000d0: 1f60 ccbd aca0 663d 8e78 8dbd 2e03 2c3d
000000e0: 2ca3 84bd a67b a0bd 01ed 5dbe d315 7ebb
000000f0: b1c0 c63d be1a 8fbd 5fc3 a63d 6b66 02be
00000100: 760d 2abd 045b 0dbe b903 b4bd c513 b53b
00000110: 2fc9 c9bd fd4f 47bd 8960 34be d904 e9bc
00000120: 9212 6abd ce75 c73c 2b8d 80bc 26ed d5bd
00000130: 4cf7 d93c 1656 3fbd f88a cc3d d748 643d
00000140: 0564 85bd 034a 4bbc c91d 95bd 3b99 943d
00000150: 15d1 cebd d65d 663d b0f3 133d 1025 e0bd
00000160: 99d8 683d e0d1 113e 191c e7bc 6970 3ebd
00000170: 7b9f 05be 3517 d5bd 85d8 e43c c79f 93bd
00000180: 1048 363d 5675 28bb 9d73 d6bd 7c44 04be
00000190: 042e 69bd f3a4 50bd 866d 133c c0fc d2bd
000001a0: 7c99 0fbe 6b23 143d 07c9 f6bd 632c 583c
000001b0: a04c fc3d d91d c63b 17de 21be 6e44 263c
000001c0: 7d13 5c3e 7151 1bbd 2e1c b0bc 5236 9d3c
000001d0: 4d17 6fbc ffbc 3abc 63f8 5abd 8c27 003b
000001e0: 570f 2bbe f1dd da3d c6f5 bf3d 7b33 0cbe
000001f0: 44f8 8bbc a4d0 d53c 77c2 86bd d9e4 0fbe
00000200: b449 2c3d f88c a4bc dd06 cdbd 67bc fdbd
00000210: 8482 05bd 0466 a53d 8cb6 303e a8fc d0bd
00000220: e5f9 27be 6fdb b2bd 2ce3 24be 4ca2 09bb
00000230: 160c 2dbc 0d00 b4bd c29b 8a3d e36f 473c
00000240: 0939 d6bc f724 0fbd 7cb2 893c 5458 53bd
00000250: 64fe 37be 2480 72be 8c52 46be c45e f3bd
00000260: fdf4 33be 3601 b6bd 12f5 95bd c19c a13d
00000270: d4b1 56bd e5a4 22be f619 44be 7203 b3bd
00000280: c132 9abc 561a 18be c955 d83d 3acb 6fbd
00000290: 0bfc c3bb c442 ce3d 7514 4abc 5ab9 cbbd
000002a0: 312d 033d f961 1ebd 8434 70bd 9343 8a3b
000002b0: b907 a43b 55f0 e2bc e09c 413d 522e 6a3d
000002c0: 6f6a 51bd cf69 913d 3a16 63bd 3e4e aa3a
000002d0: b62e 24be 63a7 8f3d 021b 06be 62a6 843d
000002e0: 806a 7d3d 085d a93b 92e4 f33d 1b63 843d
000002f0: 59ba e23d acd9 d3bc 53a6 d4bd 5854 80bc
00000300: 4ea1 71be 9625 72bd e26e 8a3d 74b8 27bc
00000310: 54a5 04bd 1763 ba3b 46d7 8bbd a6ea 223d
00000320: 9d04 b6bc fddf 70bd 3c5f 08be 4c69 183e
00000330: fa8c 283c c861 b93d 86f2 9ebd f3bc 1b3e
00000340: e824 263e ff0c be3d 489d 31bd 2759 7f3c
00000350: dfb5 4a3d 9e8c 10be 647b db3d 215d 8abc
00000360: cacf e7bc faf1 74bc 0f55 d33d 173a 3dbc
00000370: 9316 d93d 5118 143c 215e 853d 1869 503d
00000380: 16a6 cfbd 1e5b 033d 92b2 6bbd 3c57 c93b
00000390: 7967 073c f4a5 873d c48f 35bd 08a5 a3bd
000003a0: f75e c8bd 4b54 323d 21fc 943c cb5d 293c
000003b0: 9ac8 b7bc d1c5 adbc ea24 5c3c e26a f73d
000003c0: 692e c2bc 0436 f1bd 700b 0c3d 7a37 c6bc
000003d0: 0978 0ebe a546 45bd 99e3 763d 9b33 fb3c
000003e0: 8079 8cbd eef8 2f3e c19e 493e f793 3b3d
000003f0: 57f3 70bc a441 4c3d dae0 a2bd 0306 b7bc
0.1066495 -0.051438794 0.068813145 0.14539044 -0.17435208 -0.13023715 -0.037505195 -0.07634288
0.022324853 -0.02983165 -0.019769466 -0.006357936 -0.21764214 -0.3072905 -0.04050668 -0.035280436
0.06574658 0.122889236 0.08486577 0.09245842 0.1306737 -0.043997087 -0.026427763 -0.023853071
-0.06439686 -0.013881285 0.18028904 0.06994242 0.044295624 -0.07458553 0.005542205 -0.012334313
-0.05027394 -0.07462697 0.05358902 -0.007521862 -0.07557839 0.13071588 0.008342367 -0.025842153
0.08744023 0.010237715 0.055730466 -0.19246058 0.03170993 0.0953842 0.0923621 -0.15923516
-0.16159876 -0.08473576 -0.14849123 0.043595754 -0.09979271 0.056305572 -0.069077596 0.04199522
-0.06476435 -0.07836084 -0.21672441 -0.0038770332 0.09704722 -0.069875225 0.08142733 -0.12734382
-0.041516744 -0.13804251 -0.087897725 0.0055260384 -0.09852826 -0.048660267 -0.1761495 -0.028444694
-0.057146616 0.024348166 -0.015692314 -0.10445623 0.026607178 -0.046712957 0.09987444 0.055733528
-0.06513218 -0.0124077825 -0.07281072 0.07255789 -0.10098473 0.056241833 0.03612107 -0.10944569
0.05684719 0.14240217 -0.02821164 -0.04649392 -0.13049118 -0.10404817 0.027935276 -0.072082095
0.044502318 -0.0025704703 -0.1047127 -0.1291675 -0.05692865 -0.050938558 0.00899828 -0.103021145
-0.14023393 0.03616659 -0.12050062 0.013194176 0.123193026 0.0060460386 -0.15807377 0.010148151
0.21491809 -0.037919465 -0.021497812 0.019190941 -0.014592958 -0.011397599 -0.053459536 0.0019554822
-0.1670507 0.10686863 0.093730494 -0.13691513 -0.017086156 0.026100464 -0.0658006 -0.14052142
0.042062476 -0.02008675 -0.10011075 -0.123894505 -0.032595173 0.080760986 0.17257136 -0.1020444
-0.16403921 -0.0873326 -0.16102284 -0.0021001277 -0.010561964 -0.08789072 0.0676799 0.012172672
-0.026150243 -0.03494736 0.01680874 -0.05159791 -0.17968136 -0.23681694 -0.19367427 -0.118833095
-0.17573924 -0.0888695 -0.07322134 0.078912266 -0.052415684 -0.15883215 -0.19150528 -0.087408915
-0.01882303 -0.14853796 0.10563237 -0.05854342 -0.0059809736 0.10071328 -0.012333979 -0.099474624
0.03202552 -0.038667653 -0.058643833 0.0042194813 0.0050058034 -0.02770249 0.04726875 0.05717308
-0.051126894 0.071002595 -0.05544112 0.0012993289 -0.16033444 0.07014348 -0.1309624 0.064770475
0.061869144 0.005168561 0.11908831 0.06464215 0.11070699 -0.02586063 -0.10383286 -0.015665218
-0.23596689 -0.059117876 0.067594305 -0.010236848 -0.03238423 0.005688082 -0.068281695 0.03977456
-0.022218997 -0.058807362 -0.13317579 0.14883918 0.010287518 0.090518534 -0.077611014 0.15208797
0.16225016 0.092798226 -0.043362886 0.01558522 0.049489852 -0.14116141 0.10716894 -0.01689011
-0.028297324 -0.01495027 0.10318958 -0.011549494 0.10600009 0.009039001 0.06512094 0.050881475
-0.101391 0.032069318 -0.057543345 0.0061444324 0.008264416 0.0662345 -0.04432656 -0.079904616
-0.09783738 0.04353742 0.01818663 0.010337303 -0.022434521 -0.02121249 0.013436535 0.12080933
-0.02370377 -0.11777881 0.034190595 -0.024196375 -0.13912977 -0.048163075 0.060275648 0.030664256
-0.06859112 0.17184803 0.19689466 0.045795407 -0.014706454 0.049867287 -0.07953043 -0.022341734

conv_block2.0.bias f4 [16]
00000000: 47ca a13e f2bf 8cbc 68f5 b1bd b91f d9bd
00000010: 6b81 093e 9d4f 9abd 0d7c 213d b26e e8bc
00000020: df41 f0bd c177 5f3c 18fe b8bc d55d cd3d
00000030: ea5a c23d 0324 793e 9ad8 9bbd 3f0b 5c3e
0.31599638 -0.01718137 -0.08689386 -0.10601754 0.13428275 -0.07534716 0.039424945 -0.028373096
-0.11731314 0.013639391 -0.022582099 0.10027663 0.09489997 0.24330144 -0.07609673 0.21488665

conv_block2.2.weight f4 [16]
00000000: 7a1a 8f3f e3dd 683f ab01 803f 1423 6f3f
00000010: b190 883f 3d43 633f 5c1b 833f d7fd 7e3f
00000020: 31a3 823f dc28 893f 5eb9 763f 6d02 903f
00000030: 9f75 6e3f bb79 813f 9b14 793f e9b7 7a3f
1.1179955 0.9096357 1.0000509 0.934129 1.0669156 0.8877447 1.0242724 0.9960608
1.0206052 1.0715594 0.963766 1.125074 0.93148226 1.0115274 0.97297066 0.97936875

conv_block2.2.bias f4 [16]
00000000: ca0a 1fbd b5d6 533e ca09 b63d 50ea f2bd
00000010: 835e 7f3d d060 723d e6d7 203e 784c d43c
00000020: 36ba 35be 2af0 1fbd 535b 41be 905e afbd
00000030: 66d0 00be 7d17 21be 56ba 86bd 5f59 863d
-0.03882865 0.20687373 0.08888586 -0.11861098 0.062345993 0.05917436 0.15707359 0.02591537
-0.17746815 -0.039047398 -0.18882494 -0.08562958 -0.12579498 -0.15731616 -0.065785095 0.06560015

conv_block2.2.running_mean f4 [16]
00000000: cbd6 593f 7b99 423f 9f92 023f 4e87 ed3e
00000010: 1283 6f3f 6514 273f c566 833f fb37 243f
00000020: 86df 183f 28bb 6e3f 885d 093f 4f5f 4a3f
00000030: 5e3a 2b3f bc15 4c3f 2bf8 313f a136 2c3f
0.85093373 0.7601544 0.51004976 0.46392292 0.9355937 0.65265495 1.0265738 0.6414792
0.5971607 0.9325433 0.5365834 0.7905168 0.66885936 0.79720664 0.695193 0.6727086

conv_block2.2.running_var f4 [16]
00000000: 5e09 8e3f a142 b03f 8bec 523f ca28 473f
00000010: ba80 fa3f dd78 643f 68d1 bb3f 8102 723f
00000020: 1ca3 b63f 06ff ee3f 92f4 873f 038f bf3f
00000030: b469 b03f 50e6 6d3f b2ed ad3f 8ee2 7b3f
1.1096609 1.3770334 0.82392186 0.77796614 1.9570534 0.8924692 1.4673281 0.9453507
1.4268527 1.8671577 1.0621512 1.4965519 1.3782258 0.92929554 1.3588164 0.9839257

conv_block2.4.weight f4 [16, 16, 3, 3]
00000000: 3ed9 a3bb 89d8 1c3b cf50 8f3b 39e0 41bd
00000010: 67f9 c7bd 777b 213a 2211 463d ffa8 603d
00000020: 019e 0d3e 758a 89bc 5fe1 cebc a21e ec3c
00000030: 0881 b0bc acac ff3c f8b4 5c3d e69a a73c
00000040: 0f97 c63d 04b7 80bd b181 5b3d 3d03 f13c
00000050: 4ba1 28bd cc8e 1b3e 4e71 833d 55f0 6a3d
00000060: 5ba4 483e a98b 26ba e0a8 153e cdba 9ebc
00000070: 0e1a 89bd 16ac 62bd c238 1cbe 482c 5fbd
00000080: 4d87 0ebd 45c4 92bc d7c5 c03d d603 933d
00000090: f2b1 e33d 55f7 a43d 85d1 a7bd e1cc 3f3d
000000a0: ba67 38bc 7618 5cbe b0d3 593c bdb6 14be
000000b0: a8fd 8ebe a73b 54bd ebe8 413e 6a70 8f3d
000000c0: 5828 95bd 0c5a 033e 9fb1 053d 7016 d6bd
000000d0: 927b ad3c 3272 e5bb 9f2f 633d 3dda 013e
000000e0: df7e 923c 313a 1ebd c13a 03bb dcf3 ebbc
000000f0: 3bd6 6fbd 5062 043d 3a53 a53d caf4 12be
00000100: 58bf 8abd d3bf febc ddbb 88bd e552 70be
00000110: 4812 28be 30fb da3d d92b 073d 969c 5c3d
00000120: 78a4 52be e542 41bd 5e77 aabd 7ec0 323e
00000130: 91a2 6b3d fe0d 86bd 2ac5 223e 7e19 32bb
00000140: 01c0 8fbc 260c bbbd d32e bb3a e2a9 b93c
00000150: c98e 2dbe 1fb3 103d a8e2 493d 148e 2abe
00000160: 9e91 be3c 29a1 943c 0432 463b 4fa1 37bd
00000170: 3a71 913d 566a 3fbe 0947 24be a48e a5bd
00000180: 0155 37be a1bc 7cbe 7552 263d 4ef2 523d
00000190: 4f42 8e3c 16f1 3a3e 2261 403d 7581 cdbd
000001a0: 51cb 953d e3d7 54bd cea2 e33c c810 8f3d
000001b0: 197a 9d3c ba33 953b 2fdd 56bd afe4 5cbd
000001c0: 7187 febc 6503 4bbe aba0 0ebd 77d0 293c
000001d0: 075f 01be b9bc c2bd 8018 56be e6eb 55be
000001e0: 70dc 003e 3ea9 4fbd 2f27 c0bd b74d cfbd
000001f0: f6a8 f8bd 463a a0bd 5edb c63d d7b1 63bd
00000200: b541 74bd e7b2 b43d a982 533c e2e9 023c
00000210: b05e 9dbd 54c1 22be d718 61be 05d1 7fbd
00000220: 2a7e 61bd 9416 fdbc f366 b13d 4a79 153d
00000230: bbf0 d4bd e62f 933c b065 053d 81fc 20be
00000240: 238e a8bd 1baa 2b3e 1b40 9ebd 3eb1 d53c
00000250: 88ef 173e c70a 46be 7026 523d cc1f 3c3b
00000260: 5569 6fbe 4fe6 feba 1cd1 71bc 8f12 053e
00000270: e984 06bd 9a43 9fbd e258 9e3d ab39 50bd
00000280: 1a88 383d d01a d23c 5d52 39be 9b00 7a3b
00000290: 1351 26bb ee7d 1ebe 408c 20be 5f74 163e
000002a0: 7996 eabd a5c3 14bd 9b38 a6bb 3606 17bd
000002b0: 489a 9c3b 81b5 bcbd e445 7d3c 7da8 81bd
000002c0: f950 f0bd 1492 853c 2d1d 21bd fe8f c93c
000002d0: ae7c 2b3d ba01 883d 81b3 b1bd e5a4 cb3d
000002e0: 6663 513c bf9b e4bc 8fca b13d 0f06 793d
000002f0: ca3c c5bd 5c60 5cbc 7992 59bd ee2f fdbd
00000300: b5d7 9e3d f87e 4abc c060 c4bd bb11 05bd
00000310: 2f77 23bd d3cb f1bd a07d a8bc 1930 31be
00000320: 8c9d 1e3d 0b52 7abb fd97 10be db1f 613d
00000330: 5d0e 61bd 060b 29be 4d93 8b3d fa65 64bb
00000340: fe2f 30be 0f77 30bd 215d 83bd cbe6 a1bd
00000350: 78bc 213e f102 d9bd 978e ee3b 36bc af3d
00000360: ee5e 30bd 761c 21bd ff6a 1bbd 8f52 2bbd
00000370: cd54 873d d638 0fbd bfa7 593d b928 d1bb
00000380: 037c 30bd 2124 26bd fd87 c6bd 6092 133d
00000390: 0fca 5b3d ed43 8ebe afc4 243e 2fdb 023e
000003a0: 2ff6 55be 0888 ad3d 4a15 b6bd 9f37 833d
000003b0: 1f1e 7e3d 9a17 a4bd e00e ad3d 1b30 863d
000003c0: 9efd 6d39 d91b 043e 308e 373e b075 6f3e
000003d0: 5627 1bbd eed8 483e 6c6c 833e 1c0d 6ebd
000003e0: 0272 a83e e443 9b3d 352e 103e f01c aa3d
000003f0: 9197 e0bd 8a36 953d 17b2 a13d e33d 9ebd
-0.0050002625 0.0023932776 0.004373647 -0.047332976 -0.097643666 0.00061600603 0.048356183 0.054848667
0.13829805 -0.016789654 -0.02525395 0.0288232 -0.021545902 0.031210266 0.053883523 0.020459604
0.09696781 -0.062849075 0.05359048 0.02942049 -0.041169446 0.15191191 0.064180955 0.057358105
0.19593947 -0.00063532084 0.14615202 -0.019376183 -0.06694423 -0.055339895 -0.15256026 -0.05448559
-0.034797 -0.017915854 0.09412735 0.07178466 0.11117925 0.08054987 -0.081942596 0.046826247
-0.011255199 -0.21493706 0.013295099 -0.14522834 -0.279279 -0.0518147 0.18936507 0.07003863
-0.072830856 0.12827319 0.032640096 -0.10453498 0.021177087 -0.0070021385 0.055465337 0.12680908
0.017882762 -0.038629714 -0.0020024034 -0.028802805 -0.058553915 0.03232032 0.08072515 -0.14351192
-0.06774777 -0.031097328 -0.06676457 -0.23469122 -0.16413224 0.106924415 0.0330008 0.05386027
-0.20570552 -0.047182936 -0.08323549 0.17456242 0.057528082 -0.065456375 0.15895525 -0.002717584
-0.01754761 -0.091331765 0.0014280922 0.022664014 -0.16949 0.035327073 0.049288422 -0.16655761
0.023262795 0.018143253 0.0030242214 -0.04483157 0.071016744 -0.18692908 -0.16042723 -0.08083847
-0.1790352 -0.24681331 0.04060598 0.05150061 0.017365603 0.1825603 0.046967633 -0.100344576
0.0731417 -0.051963698 0.027787592 0.06985623 0.01922326 0.0045532854 -0.05245703 -0.053929027
-0.031070443 -0.19825514 -0.034821194 0.010364643 -0.12633906 -0.09508652 -0.20907784 -0.2089077
0.1258409 -0.05069851 -0.09382474 -0.10122245 -0.12141602 -0.07823615 0.0970981 -0.055589523
-0.059632976 0.088231854 0.01290957 0.007990332 -0.07684076 -0.15894061 -0.21982132 -0.062455196
-0.05505196 -0.030894555 0.08662214 0.036492623 -0.10397478 0.017967176 0.03256768 -0.15721323
-0.082302354 0.16764109 -0.07727071 0.026085492 0.14837468 -0.19340049 0.051306188 0.0028705476
-0.23380025 -0.00194473 -0.014759328 0.12995361 -0.032841597 -0.07776566 0.07731797 -0.050836246
0.04505167 0.02564755 -0.18097825 0.0038147334 -0.0025377914 -0.15477726 -0.15678501 0.1469283
-0.11454482 -0.036319394 -0.005072666 -0.036871158 0.004779134 -0.092143066 0.015458558 -0.06330965
-0.11734194 0.016305007 -0.039334465 0.024604794 0.04186695 0.06640954 -0.08676816 0.099435605
0.012780046 -0.027906297 0.08681213 0.060796794 -0.09630735 -0.013450708 -0.053118203 -0.123626575
0.077559866 -0.012359373 -0.09588766 -0.032487612 -0.039908584 -0.118064545 -0.020567715 -0.17303504
0.038724467 -0.0038195874 -0.14120479 0.05496202 -0.05494534 -0.16508111 0.06815205 -0.0034850822
-0.17205808 -0.043082293 -0.06414247 -0.079053484 0.15794551 -0.10596264 0.0072801816 0.0858082
-0.043059282 -0.039333783 -0.037943836 -0.04182678 0.06607971 -0.034966312 0.05313849 -0.0063830283
-0.043087017 -0.0405618 -0.096939065 0.036028266 0.053659495 -0.27786198 0.16090654 0.12778924
-0.20894693 0.084732115 -0.08890779 0.06407093 0.062040444 -0.08012314 0.08450103 0.06552144
0.00022696561 0.12901248 0.17925334 0.23384738 -0.03787931 0.19614002 0.25668657 -0.05811797
0.3289948 0.075813085 0.14080127 0.08306301 -0.10966409 0.07285793 0.07895296 -0.07726648

conv_block2.4.bias f4 [16]
00000000: a914 b53e f8f3 8b3d 2f0a d6bd 11b1 793e
00000010: 6620 0b3e 69df d33d d060 dfbc 34b1 a2bd
00000020: be29 743e 8d24 41be f73f 7c3d c142 b83d
00000030: 259f 1ebd ff84 b73d 9676 94be bd27 0bbc
0.35367325 0.06833643 -0.10451161 0.24383952 0.13586578 0.103453465 -0.027267843 -0.07943955
0.23844048 -0.188616 0.06158444 0.08997107 -0.03872599 0.08960914 -0.28996724 -0.008493361

conv_block2.6.weight f4 [16]
00000000: b498 7f3f 7018 853f e5b1 933f 851a 713f
00000010: 0f74 843f 330e 823f d8d3 6d3f 6664 813f
00000020: 30a5 7e3f b16f 8b3f c7fd 753f 7e3d 783f
00000030: 05bb 613f 9a21 8b3f 126c 7f3f 2bb4 6e3f
0.9984238 1.0398083 1.1538664 0.9418109 1.0347918 1.0160583 0.9290137 1.0108764
0.99470806 1.089346 0.9609036 0.9696883 0.88175994 1.0869629 0.9977428 0.93243665
